Josephs-iMac:GAN Joseph$ python DeepConvGAN.py
Using TensorFlow backend.
_________________________________________________________________
Layer (type)                 Output Shape              Param #   
=================================================================
conv2d_1 (Conv2D)            (None, 14, 14, 32)        320       
_________________________________________________________________
leaky_re_lu_1 (LeakyReLU)    (None, 14, 14, 32)        0         
_________________________________________________________________
dropout_1 (Dropout)          (None, 14, 14, 32)        0         
_________________________________________________________________
conv2d_2 (Conv2D)            (None, 7, 7, 64)          18496     
_________________________________________________________________
zero_padding2d_1 (ZeroPaddin (None, 8, 8, 64)          0         
_________________________________________________________________
leaky_re_lu_2 (LeakyReLU)    (None, 8, 8, 64)          0         
_________________________________________________________________
dropout_2 (Dropout)          (None, 8, 8, 64)          0         
_________________________________________________________________
batch_normalization_1 (Batch (None, 8, 8, 64)          256       
_________________________________________________________________
conv2d_3 (Conv2D)            (None, 4, 4, 128)         73856     
_________________________________________________________________
leaky_re_lu_3 (LeakyReLU)    (None, 4, 4, 128)         0         
_________________________________________________________________
dropout_3 (Dropout)          (None, 4, 4, 128)         0         
_________________________________________________________________
batch_normalization_2 (Batch (None, 4, 4, 128)         512       
_________________________________________________________________
conv2d_4 (Conv2D)            (None, 4, 4, 256)         295168    
_________________________________________________________________
leaky_re_lu_4 (LeakyReLU)    (None, 4, 4, 256)         0         
_________________________________________________________________
dropout_4 (Dropout)          (None, 4, 4, 256)         0         
_________________________________________________________________
flatten_1 (Flatten)          (None, 4096)              0         
_________________________________________________________________
dense_1 (Dense)              (None, 1)                 4097      
=================================================================
Total params: 392,705
Trainable params: 392,321
Non-trainable params: 384
_________________________________________________________________
_________________________________________________________________
Layer (type)                 Output Shape              Param #   
=================================================================
dense_2 (Dense)              (None, 6272)              633472    
_________________________________________________________________
reshape_1 (Reshape)          (None, 7, 7, 128)         0         
_________________________________________________________________
batch_normalization_3 (Batch (None, 7, 7, 128)         512       
_________________________________________________________________
up_sampling2d_1 (UpSampling2 (None, 14, 14, 128)       0         
_________________________________________________________________
conv2d_5 (Conv2D)            (None, 14, 14, 128)       147584    
_________________________________________________________________
activation_1 (Activation)    (None, 14, 14, 128)       0         
_________________________________________________________________
batch_normalization_4 (Batch (None, 14, 14, 128)       512       
_________________________________________________________________
up_sampling2d_2 (UpSampling2 (None, 28, 28, 128)       0         
_________________________________________________________________
conv2d_6 (Conv2D)            (None, 28, 28, 64)        73792     
_________________________________________________________________
activation_2 (Activation)    (None, 28, 28, 64)        0         
_________________________________________________________________
batch_normalization_5 (Batch (None, 28, 28, 64)        256       
_________________________________________________________________
conv2d_7 (Conv2D)            (None, 28, 28, 1)         577       
_________________________________________________________________
activation_3 (Activation)    (None, 28, 28, 1)         0         
=================================================================
Total params: 856,705
Trainable params: 856,065
Non-trainable params: 640
_________________________________________________________________
0 [D loss: 1.003765, acc.: 28.12%] [G loss: 0.662081]
1 [D loss: 0.607146, acc.: 68.75%] [G loss: 0.844332]
2 [D loss: 0.423897, acc.: 90.62%] [G loss: 0.732747]
3 [D loss: 0.396787, acc.: 87.50%] [G loss: 0.775686]
…
