Josephs-iMac:KnotClassifier Joseph$ python knotClassifier.py
Using TensorFlow backend.
_________________________________________________________________
Layer (type)                 Output Shape              Param #   
=================================================================
conv2d_1 (Conv2D)            (None, 148, 148, 32)      896       
_________________________________________________________________
activation_1 (Activation)    (None, 148, 148, 32)      0         
_________________________________________________________________
max_pooling2d_1 (MaxPooling2 (None, 74, 74, 32)        0         
_________________________________________________________________
conv2d_2 (Conv2D)            (None, 72, 72, 32)        9248      
_________________________________________________________________
activation_2 (Activation)    (None, 72, 72, 32)        0         
_________________________________________________________________
max_pooling2d_2 (MaxPooling2 (None, 36, 36, 32)        0         
_________________________________________________________________
conv2d_3 (Conv2D)            (None, 34, 34, 64)        18496     
_________________________________________________________________
activation_3 (Activation)    (None, 34, 34, 64)        0         
_________________________________________________________________
max_pooling2d_3 (MaxPooling2 (None, 17, 17, 64)        0         
_________________________________________________________________
flatten_1 (Flatten)          (None, 18496)             0         
_________________________________________________________________
dense_1 (Dense)              (None, 64)                1183808   
_________________________________________________________________
activation_4 (Activation)    (None, 64)                0         
_________________________________________________________________
dropout_1 (Dropout)          (None, 64)                0         
_________________________________________________________________
dense_2 (Dense)              (None, 5)                 325       
_________________________________________________________________
activation_5 (Activation)    (None, 5)                 0         
=================================================================
Total params: 1,212,773
Trainable params: 1,212,773
Non-trainable params: 0
_________________________________________________________________
None
Found 192 images belonging to 5 classes.
Found 96 images belonging to 5 classes.
Epoch 1/20
48/48 [==============================] - 4s - loss: 1.6512 - acc: 0.2135 - val_loss: 1.6000 - val_acc: 0.4062
…
